checkpoint_actor2.pth (torch_old, 110199 bytes, 6 tensors)

fc1.weight f4 [200, 33]
0.36305955 0.16280246 0.0039771725 0.03778467 0.04508699 0.09285175 0.21005668 -0.23425399
-0.17908658 0.29418078 0.17733614 0.17715669 0.029881598 -0.33061674 0.39670596 0.3165549
-0.10265562 0.029243153 0.09437959 0.42757952 -0.21197237 -0.23400953 0.007154078 -0.27904078
0.44650412 -0.21706524 0.1125939 0.35615033 -0.59716576 0.04412301 -0.340332 -0.061873514
0.09811332 -0.6589303 0.075781986 0.050449144 -0.25296855 0.09561511 0.035297476 -0.12218589
-0.08012566 0.13708307 -0.6088452 -0.36948156 -0.031799994 -0.28125072 0.11626662 0.14717877
-0.11732661 -0.17347844 0.14586769 0.4222358 0.10556302 -0.25192818 -0.007374155 -0.22150186
-0.00823928 0.16559942 -0.032765046 0.28535628 0.08470353 -0.085781775 -0.04810726 -0.034552585
0.01497405 -1.8728354 -0.0128795905 0.01635197 -0.058230925 0.07907815 0.020666316 0.09419123
0.03371692 -0.42540133 0.17157514 0.29969198 -0.08641986 -0.04688963 0.11080168 0.28480056
-0.28528076 0.87541956 -0.021453075 0.0663213 0.22003816 -0.06941265 -0.106974185 0.15152618
0.096231386 0.08349849 0.11036052 0.2065664 -0.33583456 0.6622718 -0.5260636 -0.020724077
-0.64746916 0.0038175806 0.20337814 0.40386054 -0.0052218335 -0.3368538 0.03515442 -0.66639525
-0.36095086 -0.14626372 0.3515429 -0.47708818 0.6360706 0.12874192 -0.052523144 0.17788275
-0.20527856 0.2052175 0.8076964 -0.26543215 0.15762483 0.101670235 -0.28836426 -0.06189481
0.079000264 0.06652329 -0.11933938 0.04549157 0.2532855 0.41245255 0.020638207 -0.67330575
-0.05343559 -0.04080138 0.04940705 -0.21821994 0.33886737 0.3584305 0.53449434 -0.13804482
-0.27729926 0.054803222 -0.25607142 0.12706569 -0.0045084474 0.15548652 0.067883454 0.31155682
-0.040611066 -0.43285522 -0.25861406 -0.4353752 0.5188491 0.29140723 -0.36889392 0.081044026
-0.23009115 0.26230052 -0.27941105 0.04538097 -0.2405267 -0.050359234 0.18076417 0.24705467
-0.07095421 -0.04155198 -0.21784607 0.005129233 1.0725622 -0.24412753 0.35884917 -0.17849585
-0.3404603 0.24917799 0.22288233 -0.02290482 -0.12737148 0.19225773 1.1436256 0.10437792
0.08586147 -0.4125506 0.6784128 0.33707717 0.39449584 0.561868 -0.14724535 -0.6759893
-0.24167494 0.2079666 0.04787286 0.20616376 0.034109045 0.20478246 0.27900776 -0.3395625
0.5651623 -0.12428004 -0.060137715 -0.6136351 -0.050826564 1.579077 -0.10046189 0.048526134
-0.41594914 -0.1053113 0.41668454 -0.14691116 0.14090608 -0.1232773 -0.48215386 0.25097018
-0.038532317 -0.059854813 -0.24628441 -0.07409952 0.32641712 0.09836718 0.041338988 0.22231752
0.0056740358 0.24679197 -0.0035122167 -0.27816874 0.08233046 0.08461436 0.17398055 0.10497935
0.053801775 0.17640296 0.7194535 0.00031090528 -0.21758665 -0.024946898 -1.4224365 -0.3632124
0.47312856 -0.34150776 -0.20529853 0.13535808 -0.39564267 0.26896837 -0.10106206 -0.14790946
0.028040979 -0.1153592 0.17240506 -0.07882074 -0.1088215 -0.07016979 0.28311357 0.12579936
0.11268878 -0.41745558 0.113866724 -0.12859043 -0.15910909 -0.4458748 -0.490242 0.13166153
00000000: f1e2 b93e b0b5 263e f152 823b 19c4 1a3d
00000010: 23ad 383d 0f29 be3d 1919 573e 47e0 6fbe
00000020: 7962 37be dd9e 963e 9b97 353e 9068 353e
00000030: 41ca f43c 9946 a9be 0b1d cb3e 7c13 a23e
00000040: 1c3d d2bd 568f ef3c 164a c13d b4eb da3e
00000050: 490f 59be 32a0 6fbe c26c ea3b 6fde 8ebe
00000060: 309c e43e 5a46 5ebe a197 e63d 5659 b63e
00000070: dbdf 18bf 54ba 343d ff3f aebe 156f 7dbd
00000080: a3ef c83d a8af 28bf 9633 9b3d c3a3 4e3d
00000090: 1885 81be dbd1 c33d 1694 103d 993c fabd
000000a0: ec18 a4bd 815f 0c3e 47dd 1bbf b02c bdbe
000000b0: b640 02bd 1800 90be 321d ee3d 08b6 163e
000000c0: ef48 f0bd 55a4 31be 575e 153e 4a2f d83e
000000d0: 6d31 d83d bbfc 80be e5a2 f1bb 62d1 62be
000000e0: 0cfe 06bc e592 293e a434 06bd 381a 923e
000000f0: 0b79 ad3d 5bae afbd 1e0c 45bd 0387 0dbd
00000100: b855 753c 12b9 efbf eb04 53bc 91f4 853c
00000110: 8d83 6ebd baf3 a13d 684c a93c 55e7 c03d
00000120: c11a 0a3d 34ce d9be 65b1 2f3e 3a71 993e
00000130: e5fc b0bd 570f 40bd feeb e23d 61d1 913e
00000140: 5210 92be 7f1b 603f 5cbe afbc 76d3 873d
00000150: af51 613e 3828 8ebd 4815 dbbd ae29 1b3e
00000160: f614 c53d 4201 ab3d b204 e23d 2486 533e
00000170: 82f2 abbe a58a 293f 1bac 06bf 8ac5 a9bc
00000180: 8ac0 25bf 6030 7a3b 5c42 503e cfc6 ce3e
00000190: ea1b abbb 1a78 acbe 15fe 0f3d e198 2abf
000001a0: 8dce b8be 28c6 15be 6efd b33e e744 f4be
000001b0: 86d5 223f ecd4 033e 8222 57bd e526 363e
000001c0: 8b34 52be 8924 523e 31c5 4e3f b9e6 87be
000001d0: 6768 213e 7c38 d03d 7ba4 93be 6a85 7dbd
000001e0: e4ca a13d 5d3d 883d 3468 f4bd 5e55 3a3d
000001f0: a3ae 813e fb2c d33e 7511 a93c c45d 2cbf
00000200: 47df 5abd 591f 27bd 0c5f 4a3d 0c75 5fbe
00000210: 0680 ad3e 3484 b73e 9fd4 083f 9f5b 0dbe
00000220: 2bfa 8dbe 5879 603d cb1b 83be 821d 023e
00000230: 99bb 93bb dc37 1f3e 7b06 8b3d 6084 9f3e
00000240: ca57 26bd 339f ddbe 1069 84be 80e9 debe
00000250: 4bd3 043f 5433 953e aadf bcbe 69fa a53d
00000260: 049d 6bbe 414c 863e f70e 8fbe 65e1 393d
00000270: a24c 76be 7c45 4ebd 3e1a 393e e6fb 7c3e
00000280: 7150 91bd 6932 2abd 0a13 5fbe 2013 a83b
00000290: b849 893f 91fc 79be 14bb b73e 9ec7 36be
000002a0: d050 aebe 8428 7f3e 443b 643e e4a2 bbbc
000002b0: ab6d 02be 36df 443e 5362 923f 17c4 d53d
000002c0: 23d8 af3d d539 d3be 76ac 2d3f 6195 ac3e
000002d0: 5cfb c93e 95d6 0f3f 7cc7 16be a20d 2dbf
000002e0: a379 77be 32f5 543e 5516 443d 981c 533e
000002f0: edb5 0b3d 7eb2 513e 1bda 8e3e 23db adbe
00000300: 7aae 103f 8986 febd f752 76bd 3117 1dbf
00000310: 842f 50bd 321f ca3f f7be cdbd 57c3 463d
00000320: 49f7 d4be 73ad d7bd ad57 d53e e16f 16be
00000330: af49 103e cf78 fcbd dfdc f6be 2a7f 803e
00000340: 10d4 1dbd 522a 75bd fb31 7cbe 7dc1 97bd
00000350: 2520 a73e bb74 c93d 1253 293d 34a7 633e
00000360: 43ed b93b 09b7 7c3e 382d 66bb 226c 8ebe
00000370: df9c a83d 4b4a ad3d f527 323e 6aff d63d
00000380: 405f 5c3d faa2 343e 1b2e 383f 0001 a339
00000390: 09cf 5ebe 705d ccbc 6612 b6bf faf6 b9be
000003a0: e83d f23e 1bda aebe c739 52be 4f9b 0a3e
000003b0: ad91 cabe 39b6 893e a0f9 cebd 9475 17be
000003c0: 32b6 e53c 7241 ecbd f48a 303e c56c a1bd
000003d0: cedd debd 2eb5 8fbd 43f4 903e 8cd1 003e
000003e0: 60c9 e63d bdbc d5be f532 e93d 36ad 03be
000003f0: 7eed 22be b449 e4be 0001 fbbe 48d2 063e

fc1.bias f4 [200]
-0.36151633 -0.070273146 -0.7938691 0.08535614 -0.20417681 -0.61835873 -0.22061914 -0.47942707
-0.119438425 -0.78458536 -0.11244349 -0.4733909 0.050907355 -0.3143213 -0.53295755 -0.4859839
-0.54265165 -0.3502214 -0.4175927 -0.48128465 -0.42107055 -0.39324218 -0.218493 -0.39481586
-0.83710086 -0.78909487 -0.13351792 -0.7465721 -0.064475976 -0.5014647 0.042604823 -0.18905461
-0.18571459 -0.41437724 -0.1635184 -0.51857245 -0.3867834 -0.7388404 -0.14547817 -0.57493305
-0.7503228 -0.26202694 -0.11212823 -0.39152646 -0.13157237 -0.85150707 -0.37609562 -0.20102645
0.001973273 -0.32895824 -0.47664165 -0.5256166 -0.28619435 -0.26909745 -0.2413346 -0.39264545
-0.1171866 0.036191344 -0.46067062 -0.23097795 -0.35166046 -0.29689467 -0.32742652 -0.3429859
-0.118508115 -0.73926204 -0.74012125 -0.22895455 -0.2667845 -0.14789401 -0.58893996 -0.6361355
-0.3994941 -0.58071136 -0.32144588 -0.81075114 -0.30673435 -0.38587347 -0.2399884 -0.6748975
-0.30140474 -0.6919018 -0.3479581 -0.1902993 -0.40745756 -0.78311664 -0.4707375 -0.30599365
-0.19768079 -0.58117425 -0.4263606 -0.14744607 -0.5374096 -0.71224326 -0.5170626 -0.635985
-0.684964 -0.42365044 -0.26462746 -0.6582748 -0.76803076 -0.47046083 -0.5817575 0.041095756
-0.6105138 -0.38270602 -0.32774445 -0.21207492 -0.5530928 -0.8741094 -0.3803239 -0.35104272
-0.7489762 -0.65398675 -0.53276736 -0.6103481 -0.40250587 -0.2707078 -0.7259867 -0.4881961
-0.41120863 0.046780117 -0.43980628 -0.7020254 -0.46142247 -0.120889105 -0.73795736 -0.49559763
-0.492319 -0.43232614 -0.77509856 -0.7072258 -0.398552 -0.23035449 0.18715465 -0.6298745
-0.2582894 0.047041573 -0.0665352 -0.36845744 -0.4973212 -0.26129162 -0.32705504 -0.2713597
-0.81602687 -0.22063974 -0.29723987 -0.4108883 -0.45379856 0.008509686 -0.39052194 -0.26830631
-0.5408289 -0.50848186 -0.5246182 -0.3092144 -0.24684805 -0.20379277 -0.25232 -0.32305142
-0.47662616 -0.32076424 -0.5326666 -0.2996665 -0.24317119 -0.30409634 -0.24828614 -0.7147877
-0.57699 -0.54192495 -0.46438214 -0.2796568 -0.4794758 -0.62446326 -0.5000182 -0.2861194
-0.60274374 -0.5348629 -0.084566444 -0.6236442 -0.495979 -0.9051831 -0.7109437 -0.46183193
-0.38003755 -0.8174327 -0.6581189 -0.52216816 -0.6614203 -0.4994407 -0.23223999 -0.55169123
-0.3268236 -0.6327657 -0.44154787 -0.52900213 0.14622611 -0.26599783 -0.5053263 -0.13683246
00000000: ab18 b9be 5eeb 8fbd 013b 4bbf 33cf ae3d
00000010: ba13 51be c24c 1ebf fce9 61be 7777 f5be
00000020: 229c f4bd 96da 48bf c648 e6bd 4b60 f2be
00000030: 3b84 503d b9ee a0be e86f 08bf e2d2 f8be
00000040: 38eb 0abf 3850 b3be b6ce d5be f16a f6be
00000050: 8f96 d7be 0a57 c9be a1bc 5fbe 4e25 cabe
00000060: 3e4c 56bf 1f02 4abf ecb8 08be 591f 3fbf
00000070: fb0b 84bd fe5f 00bf 6582 2e3d 8897 41be
00000080: f72b 3ebe 4129 d4be 5e71 27be 2ac1 04bf
00000090: 7908 c6be a524 3dbf 3bf8 14be d02e 13bf
000000a0: 2815 40bf 6528 86be 7ca3 e5bd 2876 c8be
000000b0: e8ba 06be 5efc 59bf 9b8f c0be e1d9 4dbe
000000c0: 0752 013b 376d a8be 600a f4be cf8e 06bf
000000d0: 1188 92be 24c7 89be 6b20 77be d308 c9be
000000e0: 87ff efbd 603d 143d 05dd ebbe 7c85 6cbe
000000f0: d70c b4be 9402 98be 73a4 a7be d99b afbe
00000100: 62b4 f2bd 4740 3dbf 9678 3dbf 1073 6abe
00000110: fa97 88be 8771 17be c5c4 16bf c7d9 22bf
00000120: 7e8a ccbe 80a9 14bf 8e94 a4be 638d 4fbf
00000130: 490c 9dbe 3591 c5be 85bf 75be 15c6 2cbf
00000140: b951 9abe 7a20 31bf 9027 b2be d2dd 42be
00000150: 479e d0be 557a 48bf 8104 f1be 33ab 9cbe
00000160: d56c 4abe d6c7 14bf f04b dabe 1afc 16be
00000170: ad93 09bf 9355 36bf 375e 04bf eacf 22bf
00000180: cd59 2fbf b6e8 d8be 407d 87be b384 28bf
00000190: aa9d 44bf 3ee0 f0be 0fee 14bf 0654 283d
000001a0: a24a 1cbf 0bf2 c3be 1fce a7be 2b2a 59be
000001b0: 7d97 0dbf a2c5 5fbf d0b9 c2be dfbb b3be
000001c0: e7bc 3fbf ad6b 27bf 7163 08bf c63f 1cbf
000001d0: 4015 cebe 369a 8abe 44da 39bf d7f4 f9be
000001e0: f089 d2be 829c 3f3d 4a2e e1be f0b7 33bf
000001f0: 913f ecbe b594 f7bd c6ea 3cbf f9be fdbe
00000200: 3c11 fcbe da59 ddbe dc6c 46bf c00c 35bf
00000210: 020f ccbe 0ce2 6bbe 78a5 3f3e 753f 21bf
00000220: 823e 84be aaae 403d 9b43 88bd 74a6 bcbe
00000230: e2a0 febe 04c8 85be c273 a7be a9ef 8abe
00000240: 23e7 50bf 62ef 61be d32f 98be f45f d2be
00000250: 4958 e8be 366c 0b3c 7ef2 c7be 725f 89be
00000260: c373 0abf de2b 02bf 614d 06bf 5a51 9ebe
00000270: bcc5 7cbe 0daf 50be 1630 81be ff66 a5be
00000280: 5808 f4be 363b a4be d75c 08bf e36d 99be
00000290: de01 79be 84b2 9bbe b93e 7ebe 54fc 36bf
000002a0: 9eb5 13bf 98bb 0abf 7fc3 edbe 2d2f 8fbe
000002b0: da7d f5be d3dc 1fbf 3101 00bf 3e7e 92be
000002c0: 6a4d 1abf c6ec 08bf 2c31 adbd 25a7 1fbf
000002d0: f6f0 fdbe 14ba 67bf 6800 36bf 3c75 ecbe
000002e0: 4894 c2be 4543 51bf 7b7a 28bf d0ac 05bf
000002f0: d752 29bf b1b6 ffbe 52d0 6dbe a33b 0dbf
00000300: 6c55 a7be effc 21bf 9012 e2be af6c 07bf
00000310: 4cbc 153e de30 88be 105d 01bf cf1d 0cbe

fc2.weight f4 [100, 200]
0.34218222 -0.42663783 0.6652334 0.29741317 -0.37221548 -0.028122485 -0.69871867 0.005150689
0.7149912 -0.8511586 0.15601265 -0.04250706 0.06273879 -0.08174203 0.06853778 -0.44427177
-0.4488524 -0.018703617 -0.09517873 -0.16475968 -0.17783292 -0.61918384 -0.05124102 -0.114083566
-0.22971325 0.36314029 -0.07237664 0.079168014 0.41066694 -0.4380202 0.26099873 0.32435322
-0.0876715 -0.50454026 0.3674488 -0.13372657 -0.19933641 0.415319 -0.21699423 0.3872377
-0.1060665 -0.22025387 -0.22763509 0.51150346 0.1927652 -0.018991658 0.43243712 0.089835234
-0.1707432 -0.21257779 0.40405604 0.1823596 0.03349217 0.42203268 0.017886383 0.24679604
-0.20092934 0.073252596 0.24243532 -0.20900656 0.23711787 -0.037541114 0.016179418 -0.5410077
-0.047979027 0.14786926 0.14579156 0.20318398 0.010595254 0.43206066 0.1902413 0.17701276
-0.14191933 0.12703681 -0.18693605 -0.31499636 -0.4917439 0.34836262 0.36502814 -0.6062932
0.40940374 0.1064569 0.43160126 -0.42543918 -0.8392574 -0.32237342 -0.06971933 0.15217148
0.20745067 0.10759832 -0.12881936 -0.44811755 0.46663946 0.037749086 0.33289713 0.034448124
-0.2954645 0.44833097 0.27657452 -0.021838687 -0.7173107 -0.09339723 -0.13614883 0.63444334
0.045871355 0.12714815 0.4729598 -0.104056336 -0.0073651015 0.47435427 0.4732406 -0.04364562
0.3190378 -0.12040325 -0.28368956 -0.009987439 0.42110443 0.010365455 -0.22948118 -0.07313883
-0.66542923 0.32596067 -0.27735284 -0.19675529 -0.29240495 0.662905 0.079951644 -0.5156546
0.016945241 0.03010991 -0.18633999 0.19700749 0.28174642 -0.28315023 0.0478348 -0.07009614
0.066596925 -0.771227 -0.12067713 -0.34693995 -1.3983922 -0.03821096 0.70161974 0.3260589
0.17926265 -0.112136625 0.14688398 0.47019598 -0.36154094 -0.78380007 -0.080125585 0.20157295
-0.13662826 0.3020168 -0.8993746 -0.08747837 0.2738497 0.040816408 -0.23018695 0.21970792
-0.2885692 0.19951487 -0.04140092 0.6649709 0.4214213 -0.09045305 0.23858073 -0.12497213
0.4350482 -0.820192 -0.8387715 -0.13593982 -0.36872306 0.010202198 0.33758485 -0.62380224
0.058005743 0.33374962 -0.14143237 0.18887226 -0.23252092 0.25070927 -0.58569556 -0.15371199
0.20499404 -0.27515548 0.23098882 0.30329213 -0.08291438 -0.8343845 0.44794938 0.4444522
0.4328268 -0.089196816 0.23435898 -0.27137923 -0.4156334 0.044035327 0.45211792 0.051356062
0.0128532685 0.1270258 -0.59921587 -0.29256484 -0.0019492983 -0.13484983 -0.30112013 0.42148
-0.08854279 -0.38638657 0.60295486 -0.53201777 -0.40675676 -0.36202085 0.18732215 -0.25510544
0.38848707 -0.33674735 0.25787526 -0.16142245 0.025015512 -0.31503767 -0.34579936 0.04672582
0.4077453 0.19204965 -0.10265517 0.15369338 -0.03258576 -0.25513095 0.10723284 -0.54350466
-0.3217173 -0.8862236 0.0384953 0.10021986 -0.31123343 -0.031895857 -0.37351695 0.08891588
0.023613142 0.43849632 -0.4998572 -0.011390915 -0.25233862 0.38448194 -0.4911912 -0.21673451
0.02184172 0.2559444 -0.9526179 0.13922215 -0.23955762 0.4228092 -0.34173542 0.20293413
00000000: 8232 af3e 4670 dabe bc4c 2a3f 8a46 983e
00000010: 0793 bebe 2061 e6bc 3adf 32bf 1cc7 a83b
00000020: aa09 373f 88e5 59bf c8c1 1f3e e21b 2ebd
00000030: 327d 803d 5e68 a7bd 895d 8c3d 9777 e3be
00000040: fbcf e5be 5438 99bc 11ed c2bd c3b6 28be
00000050: d519 36be d582 1ebf 1be2 51bd a5a4 e9bd
00000060: f339 6bbe 86ed b93e 343a 94bd d722 a23d
00000070: f042 d23e 2f44 e0be a0a1 853e a011 a63e
00000080: 1e8d b3bd 8d29 01bf 4022 bc3e 9eef 08be
00000090: d81e 4cbe b1a4 d43e bc33 5ebe 0544 c63e
000000a0: 6539 d9bd 3b8a 61be 2c19 69be e4f1 023f
000000b0: 3e64 453e 6594 9bbc 6668 dd3e 89fb b73d
000000c0: 4ed7 2ebe fead 59be 6fe0 ce3e 7abc 3a3e
000000d0: 162f 093d ab14 d83e 7786 923c 1ab8 7c3e
000000e0: 6cc0 4dbe 7505 963d f740 783e d105 56be
000000f0: 07cf 723e b6c4 19bd b38a 843c 7b7f 0abf
00000100: a885 44bd 0a6b 173e 624a 153e 760f 503e
00000110: b797 2d3c 0e37 dd3e 9ece 423e d542 353e
00000120: 4d53 11be f015 023e 2a6c 3fbe 3447 a1be
00000130: dbc5 fbbe 965c b23e f8e4 ba3e 0836 1bbf
00000140: 5e9d d13e 1306 da3d d7fa dc3e 2ad3 d9be
00000150: 93d9 56bf 210e a5be 02c9 8ebd d7d2 1b3e
00000160: f36d 543e 825c dc3d 39e9 03be aa6f e5be
00000170: 5eeb ee3e c99e 1a3d 7e71 aa3e 7a19 0d3d
00000180: 1f47 97be a38b e53e 2d9b 8d3e 0ce7 b2bc
00000190: ada1 37bf 0c47 bfbd 996a 0bbe e16a 223f
000001a0: 9ae3 3b3d 2033 023e c927 f23e 7d1b d5bd
000001b0: f356 f1bb 90de f23e 984c f23e c0c5 32bd
000001c0: ec58 a33e fb95 f6bd c23f 91be 5ba2 23bc
000001d0: 009b d73e dfd3 293c 1dfd 6abe d0c9 95bd
000001e0: 9259 2abf 51e4 a63e 3101 8ebe 387a 49be
000001f0: 1ab6 95be 24b4 293f b0bd a33d f101 04bf
00000200: bfd0 8a3c 0fa9 f63c e9cf 3ebe 55bc 493e
00000210: 1141 903e 11f9 90be 6cee 433d 918e 8fbd
00000220: f863 883d 226f 45bf 9225 f7bd 1da2 b1be
00000230: 84fe b2bf 1883 1cbd 5a9d 333f 31f1 a63e
00000240: a190 373e e3a7 e5bd c168 163e 87bd f03e
00000250: e51b b9be 1fa7 48bf e218 a4bd 2469 4e3e
00000260: 47e8 0bbe f2a1 9a3e 6a3d 66bf dc27 b3bd
00000270: 0736 8c3e 1b2f 273d 21b6 6bbe 1dfb 603e
00000280: 58bf 93be a04d 4c3e 0394 29bd 883b 2a3f
00000290: 88c4 d73e 733f b9bd 824e 743e 63f1 ffbd
000002a0: a3be de3e 1af8 51bf bbb9 56bf cf33 0bbe
000002b0: 45c9 bcbe 1f27 273c ecd7 ac3e 81b1 1fbf
000002c0: 6e97 6d3d 3be1 aa3e a6d3 10be bb67 413e
000002d0: f719 6ebe f75c 803e 25f0 15bf ad66 1dbe
000002e0: f5e9 513e 2ee1 8cbe 5588 6c3e 1b49 9b3e
000002f0: 04cf a9bd 399a 55bf 9f59 e53e 3d8f e33e
00000300: 799b dd3e d2ac b6bd cdfb 6f3e 38f2 8abe
00000310: e7cd d4be 635e 343d 007c e73e bc5a 523d
00000320: 8496 523c 0d13 023e 3666 19bf 0fcb 95be
00000330: 997f ffba 1316 0abe 6b2c 9abe 3acc d73e
00000340: ec55 b5bd 76d4 c5be 405b 1a3f 5132 08bf
00000350: 6c42 d0be cc5a b9be 61d1 3f3e 2e9d 82be
00000360: c7e7 c63e 266a acbe 3a08 843e ed4b 25be
00000370: 55ed cc3c 9e4c a1be 9d0c b1be 9363 3f3d
00000380: fec3 d03e aaa8 443e e03c d2bd cc61 1d3e
00000390: a578 05bd 86a0 82be e49c db3d 1f23 0bbf
000003a0: 21b8 a4be 8ddf 62bf 3fad 1d3d 1240 cd3d
000003b0: fd59 9fbe 3ba5 02bd 9d3d bfbe 8719 b63d
000003c0: 5970 c13c 9782 e03e 48ed ffbe f6a0 3abc
000003d0: 8732 81be d1da c43e 6a7d fbbe a7ef 5dbe
000003e0: 68ed b23c 250b 833e c4de 73bf 4090 0e3e
000003f0: 984e 75be 737a d83e f2f7 aebe f7cd 4f3e

fc2.bias f4 [100]
0.30805117 -0.41036764 -0.18689372 -0.034388803 -0.12415061 -0.0935224 -0.35587332 -0.4282145
-0.13636425 0.05425269 -0.24173138 -0.5234006 -0.266227 -0.2386766 -0.41986012 0.11066179
0.08953873 -0.09143529 -0.18905737 0.004030005 -0.15032282 -0.056548495 -0.28621137 -0.23859376
-0.07953887 0.13260953 -0.2212204 -0.40703446 0.079724565 -0.1889158 -0.4075432 -0.20869161
-0.15542762 -0.0015705345 0.020289741 -0.58083814 -0.084229305 -0.19409314 -0.018517192 -0.30147588
-0.26622298 0.08692842 -0.15898861 -0.442941 -0.34193906 0.03923564 0.28906697 -0.00487623
-0.10302926 -0.49941126 -0.25054598 0.32871732 -0.34891352 0.06838724 -0.17937107 -0.088596955
-0.17279734 -0.2211941 -0.1664414 0.11344985 -0.08265762 -0.09525 -0.13640189 0.009198997
-0.057271034 -0.13237315 -0.30593872 -0.273307 -0.020700455 -0.4377172 -0.1805688 -0.017584074
-0.1137856 -0.13881537 -0.20292564 0.1399675 -0.2387831 0.04891416 -0.35766265 -0.017512819
-0.08065804 0.053555977 -0.09686894 -0.22144704 -0.53471047 0.07623182 -0.1845347 -0.34923065
-0.28312302 -0.4566173 -0.347303 0.07054106 -0.1919805 0.008087673 0.1132635 -0.10952003
-0.1276865 -0.5243419 -0.011646914 -0.052892447
00000000: e2b8 9d3e b51b d2be 1161 3fbe 46db 0cbd
00000010: ad42 febd ac88 bfbd 0735 b6be ee3e dbbe
00000020: 12a3 0bbe 1238 5e3d 6e88 77be 95fd 05bf
00000030: e84e 88be a367 74be e8f7 d6be a6a2 e23d
00000040: 1560 b73d 6d42 bbbd 4198 41be 220e 843b
00000050: 3aee 19be 659f 67bd 4c8a 92be ec51 74be
00000060: 46e5 a2bd cbca 073e 9a87 62be d266 d0be
00000070: a246 a33d 2573 41be 81a9 d0be 41b3 55be
00000080: 6b28 1fbe 65da cdba ac36 a63c cfb1 14bf
00000090: 6a80 acbd 5ac0 46be 5eb1 97bc 0c5b 9abe
000000a0: 614e 88be 8707 b23d e9cd 22be 2ac9 e2be
000000b0: a312 afbe 8db5 203d 9600 943e c8c8 9fbb
000000c0: 0101 d3bd d5b2 ffbe 9047 80be a34d a83e
000000d0: cba4 b2be 9c0e 8c3d 0dad 37be 5272 b5bd
000000e0: c9f1 30be b580 62be 9d6f 2abe 6558 e83d
000000f0: 6648 a9bd 6f12 c3bd f0ac 0bbe 64b7 163c
00000100: 0895 6abd d48c 07be 00a4 9cbe e5ee 8bbe
00000110: 0094 a9bc 781c e0be 07e7 38be 7a0c 90bc
00000120: 6d08 e9bd 9e25 0ebe bdcb 4fbe a453 0f3e
00000130: 8f83 74be 375a 483d 8f1f b7be 0b77 8fbc
00000140: 0b30 a5bd 835d 5b3d 3963 c6bd 03c3 62be
00000150: c9e2 08bf 6e1f 9c3d aaf6 3cbe 5cce b2be
00000160: 80f5 90be bec9 e9be b3d1 b1be d577 903d
00000170: 8996 44be 2982 043c b2f6 e73d 0a4c e0bd
00000180: 40c0 02be 453b 06bf b3d2 3ebc c0a5 58bd

fc3.weight f4 [4, 100]
0.19453666 -0.16505904 0.21402463 -0.06039984 0.0011982467 0.10730452 -0.30945066 0.08691677
0.07762153 -0.17102367 0.019711431 0.27775094 -0.17996089 -0.05975351 -0.33717144 -0.22985533
0.30220023 -0.005140223 0.0644812 0.4068585 0.209943 0.1310602 0.05227446 0.03630363
-0.32992837 -0.095615275 0.17400508 -0.039525833 0.06834888 0.045465954 -0.2104931 0.28340995
-0.082349315 0.42304295 -0.076230094 -0.09145953 -0.12390146 -0.1844017 0.033777025 -0.06595934
0.1651663 0.4882242 0.5566221 0.020488163 1.0529402 0.36089966 0.054449793 -0.12969033
-0.20478038 0.15934716 -0.13606493 0.07664836 -0.012151667 -0.1624318 0.108887084 0.189172
0.021790797 0.045163546 0.26688552 0.18178456 0.2319419 -0.258679 0.1410014 -0.1810663
-0.08425295 0.22451337 0.23385184 0.023794243 0.13316678 0.27784118 0.013170698 -0.21145731
-0.13787802 0.38932866 0.60107887 0.28950924 -0.07007231 -0.22717637 0.14169878 0.17622322
0.34662133 0.2335768 -0.18964234 0.14157572 0.31901693 0.5549608 0.17301656 -0.22562565
-0.090096496 0.24022198 0.016443951 0.13157137 0.06267759 0.055538032 -0.030558554 0.03793357
-0.018210307 0.10190958 -0.15095985 0.113407984 -0.7933947 -0.2940211 -0.11395861 -0.716776
0.7692021 0.19706635 -0.675765 -0.6134184 0.51645696 -0.0010524649 0.97438765 0.06764448
-0.786994 -0.71121484 0.4346738 0.533887 -0.29769713 -0.30869707 0.05580318 0.07883591
0.93157375 0.50499344 0.3371516 0.11124513 -0.5826386 -0.64927846 -0.26409873 0.03833652
0.06520999 0.45870414 -0.6611768 -0.40677017 -0.15684319 -0.4812556 -0.25455683 -0.9638789
-0.39741716 0.15912054 -0.20318463 0.45212966 -0.9913565 0.6433574 -0.58931786 0.21127535
-0.3488239 -0.44695872 -0.29377416 -0.8445457 -0.22339797 0.67748183 0.29721633 0.046279017
0.8599478 -0.0024299778 -0.20308909 0.7309958 -0.39655477 -0.40682855 1.0285589 0.15224104
0.62463784 0.85125875 -0.06525204 0.6113136 -0.5591515 0.17902456 -0.4485197 0.60093117
-0.12970771 0.25683346 0.7070483 0.034476615 -0.17341937 0.014044594 -1.1018051 0.12903719
0.5167821 0.04566643 -0.30313492 0.8200573 0.15329777 -0.42037016 0.6007428 0.6470675
-1.0835506 0.43843433 -0.052673712 0.26891056 -0.15995774 -0.43418333 -0.27733856 -0.6583183
0.5490967 0.09732049 -0.35403198 -0.55124134 0.58036804 -0.52473456 0.63376397 0.3421223
0.032349125 -0.08350927 0.12112785 -0.02738528 0.23958589 0.065814994 0.0060583656 -0.31210163
0.002542708 0.0152269425 -0.015096333 0.20782351 -0.06839314 -0.071922414 0.011641841 0.0119512975
-0.036562234 -0.10392963 -0.14880767 0.0035707285 0.19670199 0.09450314 -0.007724306 -0.248465
0.011088682 0.024744686 -0.47918737 -0.2796435 -0.017059444 -0.13993935 -0.06358827 -0.0702816
-0.038645554 -0.19291258 0.039669834 -0.06231081 -0.06588863 -0.09694401 -0.058323145 -0.06901497
0.13749903 0.061943907 -0.007833713 -0.031957883 -0.76025254 0.06130133 0.093776576 -0.083034664
0.11989062 -0.05003726 0.09124394 -0.1507889 0.0429779 -0.026604963 -0.03716077 -0.31790632
00000000: 9e34 473e 3d05 29be 4629 5b3e d365 77bd
00000010: 7d0e 9d3a 79c2 db3d 5170 9ebe 6b01 b23d
00000020: 09f8 9e3d d420 2fbe de79 a13c 5f35 8e3e
00000030: ab47 38be 19c0 74bd bca1 acbe 325f 6bbe
00000040: fdb9 9a3e 516f a8bb b80e 843d c24f d03e
00000050: 4cfb 563e a534 063e bf1d 563d 1db3 143d
00000060: 5fec a8be f1d1 c3bd 632e 323e d7e5 21bd
00000070: 7ffa 8b3d 823a 3a3d 818b 57be 1c1b 913e
00000080: c2a6 a8bd 1699 d83e 861e 9cbd 224f bbbd
00000090: 0cc0 fdbd cdd3 3cbe c759 0a3d b115 87bd
000000a0: 5b21 293e 86f8 f93e c97e 0e3f cbd6 a73c
000000b0: bfc6 863f d7c7 b83e bf06 5f3d 8bcd 04be
000000c0: f3b1 51be e72b 233e 9b54 0bbe d1f9 9c3d
000000d0: c917 47bc 8654 26be 3100 df3d 4eb6 413e
000000e0: 9d82 b23c 69fd 383d 38a5 883e bb25 3a3e
000000f0: 2d82 6d3e 9371 84be ac62 103e 7269 39be
00000100: d08c acbd d5e6 653e db76 6f3e 25ec c23c
00000110: df5c 083e 3341 8e3e e9c9 573c 4488 58be
00000120: e52f 0dbe 1656 c73e 4ee0 193f 8e3a 943e
00000130: 1282 8fbd eca0 68be 7c19 113e dc73 343e
00000140: 5a78 b13e c22e 6f3e 9a31 42be 3af9 103e
00000150: 3056 a33e e911 0e3f 412b 313e 690a 67be
00000160: 8384 b8bd c0fc 753e 77b5 863c a5ba 063e
00000170: 1c5d 803d d97b 633d ef55 fabc 3b60 1b3d
00000180: c82d 95bc f8b5 d03d 3895 1abe 7242 e83d
00000190: ea1b 4bbf ef89 96be 2263 e9bd a27e 37bf
000001a0: 6eea 443f c3cb 493e effe 2cbf fd08 1dbf
000001b0: 8636 043f ddf2 89ba 7871 793f 3089 8a3d
000001c0: 7078 49bf 2d12 36bf 908d de3e d2ac 083f
000001d0: c26b 98be 8b0d 9ebe e091 643d b974 a13d
000001e0: 9e7b 6e3f 4047 013f 229f ac3e 7dd4 e33d
000001f0: ce27 15bf 1d37 26bf f337 87be c106 1d3d
00000200: d18c 853d 45db ea3e e242 29bf 2e44 d0be
00000210: 809b 20be 2267 f6be 4655 82be c5c0 76bf
00000220: 437a cbbe 7ff0 223e a20f 50be 8a7d e73e
00000230: 8ac9 7dbf 12b3 243f 89dd 16bf 9158 583e
00000240: 0c99 b2be c6d7 e4be 9169 96be 2634 58bf
00000250: 70c2 64be 736f 2d3f bd2c 983e 118f 3d3d
00000260: 8a25 5c3f 4340 1fbb 96f6 4fbe 8a22 3b3f
00000270: 3a09 cbbe d54b d0be d1a7 833f 13e5 1b3e
00000280: 44e8 1f3f 18ec 593f dda2 85bd 0c7f 1c3f
00000290: 8d24 0fbf 3752 373e 60a4 e5be a0d6 193f
000002a0: 19d2 04be ad7f 833e 1e01 353f 5a37 0d3d
000002b0: d994 31be 4c1b 663c f307 8dbf 5322 043e
000002c0: d54b 043f b90c 3b3d 8034 9bbe 46ef 513f
000002d0: 17fa 1c3e c23a d7be 48ca 193f 37a6 253f
000002e0: c9b1 8abf 777a e03e 64c0 57bd a5ae 893e
000002f0: f6cb 23be 474d debe 52ff 8dbe 8c87 28bf
00000300: 9a91 0c3f f74f c73d ae43 b5be 271e 0dbf
00000310: 0093 143f 0155 06bf 5b3e 223f a72a af3e
00000320: 8480 043d e806 abbd e111 f83d 1857 e0bc
00000330: 0156 753e 03ca 863d 4185 c63b c9cb 9fbe
00000340: 90a3 263b 6d7a 793c 9c56 77bc b0cf 543e
00000350: b411 8cbd 0f4c 93bd 6cbd 3e3c 60cf 433c
00000360: 48c2 15bd 0fd9 d4bd 0a61 18be e202 6a3b
00000370: 3f6c 493e dd8a c13d 2d1c fdbb 9c6d 7ebe
00000380: 4ead 353c 5eb5 ca3c 0c58 f5be 6f2d 8fbe
00000390: 3fc0 8bbc 434c 0fbe 913a 82bd cdef 8fbd
000003a0: cd4a 1ebd e08a 45be d67c 223d 9f39 7fbd
000003b0: 9ef0 86bd 958a c6bd 40e4 6ebd b857 8dbd
000003c0: 8ccc 0c3e e5b8 7d3d f958 00bc 45e6 02bd
000003d0: e99f 42bf 1a17 7b3d ef0d c03d 140e aabd
000003e0: 3789 f53d dff3 4cbd 1ade ba3d 6868 1abe
000003f0: 9809 303d a7f2 d9bc e435 18bd 9ec4 a2be

fc3.bias f4 [4]
-0.0732003 -0.16746631 0.20640618 0.2524467
00000000: 0aea 95bd 4a7c 2bbe 245c 533e b240 813e
