checkpoint_critic2.pth (torch_old, 110589 bytes, 5 tensors)

fcs1.weight f4 [200, 33]
0.03531496 -0.02959887 0.004606045 -0.027908832 0.17271873 -0.050455604 0.08762652 0.033150405
-0.038159747 0.0017628565 0.036677532 0.012950158 0.032681655 -0.09369428 0.09382291 0.041398134
0.05117037 -0.07285836 -0.013373727 -0.067526825 0.074060164 -0.11319951 -0.0042503118 0.04362371
-0.057738584 -0.07297654 0.06389295 -0.014514755 -0.0034277232 0.01254575 -0.09257769 -0.05343559
0.1674035 0.16423552 0.097018845 -0.028176423 -0.028494556 0.00513414 0.058152474 0.078317754
0.010692111 -0.01593871 0.04302606 0.024297964 0.076013274 -0.0018731187 0.045440916 0.0363224
0.048327185 0.058585968 0.059147842 0.02093813 0.026267339 -0.04524339 -0.017039854 0.016948074
0.03324757 0.03491626 -0.037098538 -0.073664926 0.07674203 -0.10031144 0.04919786 -0.048852906
-0.04155198 0.049255833 -0.1000898 0.026669778 -0.03437498 -0.052068748 -0.016444812 0.07183625
0.057765428 -0.05685494 0.08404912 -0.039627276 -0.016977085 0.01961203 0.024064945 -0.084799826
-0.033437237 0.053096436 -0.08805011 -0.009063435 -0.03863244 0.0620732 -0.008961546 -0.006464714
-0.043140974 -0.016221609 0.03389409 -0.010329349 0.006287264 0.07660887 -0.11714053 -0.013490383
-0.037209917 -0.060137715 -0.4824141 -0.08056335 -0.114872456 0.057894196 0.023496304 -0.062456574
0.013164474 0.018377777 -0.003463368 0.034031704 -0.032381523 -0.04342018 0.031124402 0.039249465
-0.059735075 -0.01904676 -0.039305836 -0.13219249 -0.010570249 -0.021795498 -0.022848243 -0.007397439
0.015633946 0.08412937 0.020827174 -0.05199106 0.007099313 0.07965455 0.08094099 -0.029243384
-0.02929663 0.0046533654 0.00031090528 -0.039565314 -0.031630643 0.015050735 0.060258083 0.102260366
0.015710372 -0.08539923 -0.035016347 0.03162734 -0.042047013 -0.008554551 -0.03181305 0.053655706
0.040164948 -0.074861154 0.19716305 0.02306402 0.08571193 0.05983955 -0.024842165 -0.012433897
-0.0066249673 -0.009320296 0.012013077 0.053536527 0.06301734 0.0072066817 0.14299056 -0.01772945
-0.03761486 -0.06785432 0.03162089 -0.047949597 -0.24853492 -0.026860071 -0.008790153 0.028462643
-0.0074453303 0.008329105 -0.023713836 -0.079289034 -0.017192837 -0.036702927 -0.11237964 0.017427726
0.012076849 0.012513585 -0.035861254 0.044980697 0.027000375 0.07800909 0.0049592177 -0.023741188
0.10520876 -0.037752993 0.021938298 0.051778294 0.010365737 -0.0087044295 0.07123503 -0.11732702
0.10738892 0.11664503 -0.027726956 -0.08977196 0.058904 -0.3592841 0.14325817 0.07493744
-0.020477224 0.01797327 0.09616241 -0.0366126 -0.015942313 -0.045302242 -0.029041942 -0.06535034
0.029197257 -0.010943644 -0.00919032 -0.09434287 -0.07700788 0.05781175 -0.027987195 0.03949217
0.12814523 0.02268712 0.02932686 0.053001843 0.030406078 -0.024644136 -0.0021832457 -0.03737922
0.076117635 0.009472769 -0.011180773 -0.0479458 -0.01925975 0.033419028 0.27485293 0.039637942
-0.1237172 -0.0076027294 -0.021558406 -0.020997914 -0.077128775 0.010741877 -0.05472892 0.001908065
0.0037528633 0.016702881 0.024555441 -0.055249315 -0.0008243218 0.033669896 -0.02075067 0.07219849
-0.0789189 -0.0410928 0.039841536 0.0034439217 -0.013542225 -0.04202066 -0.045095664 -0.0038356218
00000000: 6ba6 103d 5479 f2bc 4eee 963b 10a1 e4bc
00000010: 2edd 303e 89aa 4ebd 8875 b33d b8c8 073d
00000020: 654d 1cbd a60f e73a 2e3b 163d e62c 543c
00000030: 33dd 053d c9e2 bfbd 3a26 c03d 1791 293d
00000040: 0698 513d c436 95bd 7a1d 5bbc 814b 8abd
00000050: dbac 973d 25d5 e7bd 3346 8bbb c6ae 323d
00000060: 4b7f 6cbd b974 95bd 4fda 823d 4ccf 6dbc
00000070: a7a3 60bb b08c 4d3c 5f99 bdbd 47df 5abd
00000080: d36b 2b3e 5b2d 283e d1b1 c63d 3ed2 e6bc
00000090: 6a6d e9bc 4a3c a83b 4a31 6e3d 0f65 a03d
000000a0: f72d 2f3c e691 82bc 183c 303d 860c c73c
000000b0: d9ac 9b3d 6f83 f5ba 4120 3a3d ccc6 143d
000000c0: baf2 453d d7f7 6f3d 0245 723d 7186 ab3c
000000d0: 9a2e d73c 2251 39bd 2a97 8bbc b0d6 8a3c
000000e0: 9b2e 083d 5a04 0f3d a3f4 17bd a3dd 96bd
000000f0: ed2a 9d3d 1670 cdbd b283 493d fc19 48bd
00000100: 6932 2abd 7cc0 493d e2fb ccbd 947a da3c
00000110: c7cc 0cbd 0a46 55bd 45b7 86bc e21e 933d
00000120: 719b 6c3d bae0 68bd f221 ac3d 3650 22bd
00000130: 8713 8bbc 68a9 a03c d923 c53c 88ab adbd
00000140: 7cf5 08bd a67b 593d 9e53 b4bd cd7e 14bc
00000150: 0d3d 1ebd 7840 7e3d 73d3 12bc f4d5 d3bb
00000160: 97b4 30bd 2ee3 84bc 88d4 0a3d 6e3c 29bc
00000170: 6505 ce3b 1ce5 9c3d 60e7 efbd c406 5dbc
00000180: 6d69 18bd f752 76bd fbfe f6be 66fe a4bd
00000190: 4042 ebbd 7722 6d3d 527b c03c 77d2 7fbd
000001a0: ceaf 573c fe8c 963c acf9 62bb d464 0b3d
000001b0: 7da2 04bd 5cd9 31bd 9af8 fe3c 0cc4 203d
000001c0: c4ac 74bd f307 9cbc 28ff 20bd 785d 07be
000001d0: d62e 2dbc 798c b2bc 3d2c bbbc 3766 f2bb
000001e0: c312 803c 054c ac3d c09d aa3c 94f4 54bd
000001f0: 5ba1 e83b ed21 a33d 64c4 a53d d28f efbc
00000200: 7cff efbc 427b 983b 0001 a339 3d0f 22bd
00000210: 228f 01bd 5c97 763c 2ed1 763d e26d d13d
00000220: 0ab3 803c cbe5 aebd 4d6d 0fbd ab8b 013d
00000230: 7d39 2cbd 6328 0cbc 674e 02bd 16c6 5b3d
00000240: 0084 243d ce50 99bd 1ce5 493e c1f0 bc3c
00000250: bd89 af3d 511a 753d cc81 cbbc 8bb7 4bbc
00000260: 4116 d9bb 28b4 18bc 7fd2 443c 1e49 5b3d
00000270: 3c0f 813d 0726 ec3b 1e6c 123e 5a3d 91bc
00000280: 0a12 1abd 35f7 8abd e884 013d cc66 44bd
00000290: f07f 7ebe a709 dcbc 9304 10bc 7d2a e93c
000002a0: f5f7 f3bb cc76 083c 8543 c2bc 4a62 a2bd
000002b0: fed7 8cbc cf55 16bd 4c27 e6bd 97c4 8e3c
000002c0: fadd 453c c805 4d3c 40e3 12bd ae3d 383d
000002d0: e42f dd3c 3bc3 9f3d ef80 a23b e17c c2bc
000002e0: b177 d73d e2a2 1abd f2b7 b33c 7a15 543d
000002f0: 0dd5 293c 069d 0ebc ace3 913d 2649 f0bd
00000300: b9ee db3d 97e3 ee3d a423 e3bc 5dda b7bd
00000310: 5245 713d 16f4 b7be 45b2 123e cd78 993d
00000320: dabf a7bc ae3c 933c ccf0 c43d 18f7 15bd
00000330: 7499 82bc d88e 39bd 5ee9 edbc 66d6 85bd
00000340: 162f ef3c f84c 33bc ff92 16bc d636 c1bd
00000350: 4fb6 9dbd 03cc 6c3d 6745 e5bc 8bc2 213d
00000360: 8138 033e 57da b93c e23e f03c 7618 593d
00000370: 2b16 f93c 80e2 c9bc c914 0fbb f41a 19bd
00000380: 90e3 9b3d ac33 1b3c 902f 37bc d162 44bd
00000390: a0c6 9dbc 64e2 083d 86b9 8c3e 655b 223d
000003a0: 715f fdbd 5120 f9bb 419b b0bc d103 acbc
000003b0: b1f5 9dbd b3fe 2f3c 6f2b 60bd 0a18 fa3a
000003c0: 99f2 753b 7bd4 883c 7e28 c93c 1b4d 62bd
000003d0: 4d17 58ba 72e9 093d 4ffd a9bc cddc 933d
000003e0: 3ba0 a1bd ed50 28bd e130 233d 6bb3 613b
000003f0: 35e0 5dbc db1d 2cbd 3bb6 38bd 0e5f 7bbb

fcs1.bias f4 [200]
-0.046995733 -0.115318 -0.14148355 0.08089274 0.008893354 -0.0782803 -0.049873285 -0.05553193
-0.12489955 0.021568308 0.16346233 -0.15947542 0.02039318 0.1237422 -0.009114465 0.016398543
-0.07891668 0.06919097 0.16631466 0.05381596 0.06429914 0.008312093 0.1140046 0.03205691
0.013606839 -0.066285156 0.16500065 -0.10544441 0.14987181 -0.121333845 -0.11893488 -0.034596846
0.016442725 0.15220183 -0.17010243 0.10237167 -0.0035495162 -0.0061044376 0.10759636 -0.09331919
-0.1195528 -0.032450058 -0.06424722 -0.14376423 -0.06839762 -0.17538582 -0.013822073 0.059644703
0.19262104 -0.067260005 -0.08501477 0.106463976 0.16791508 0.042649034 0.11512113 0.0032160478
-0.03727412 0.094119094 0.06516778 0.12874946 0.017122447 -0.048988536 -0.18539597 -0.05761953
0.014619807 -0.104546726 -0.026657943 0.15180269 0.041569095 -0.09950536 -0.13523628 -0.19438015
-0.09999526 -0.016249953 0.039160933 0.08311338 -0.20812145 -0.11918263 -0.13311838 -0.08284877
-0.009867332 -0.13449913 0.15272997 0.1031835 -0.13782717 -0.07083847 0.022018868 0.064636976
0.14455219 -0.0071192593 -0.16438314 0.11848181 0.041331757 0.0015015636 -0.061188377 -0.07141418
0.14735408 0.05907976 0.18786205 -0.17427512 -0.08469358 -0.03710579 0.01988558 0.1779093
-0.094798684 0.12406947 -0.12145627 -0.1773913 0.0104241 -0.14650469 -0.062165964 0.14760344
-0.10682193 -0.11509458 0.010291817 -0.15366958 -0.10811869 -0.05121404 -0.065357216 -0.058895335
0.07808978 0.17746863 0.084833145 -0.14705995 0.02894556 0.17670159 -0.15768008 -0.1905524
-0.13354082 0.0458651 -0.09925637 -0.028293451 0.031051716 0.07478816 0.14224535 -0.01452298
0.060040485 0.1968747 0.08702668 -0.16866371 0.08852845 0.1098611 0.013371557 0.16055009
-0.07314639 0.1018759 0.0057361987 -0.076826476 -0.0065823197 -0.112149656 0.016969746 0.08114906
0.08869376 -0.20343824 -0.22378807 -0.1527869 -0.12232497 -0.057850584 -0.011771043 -0.026904762
0.0018410365 -0.022440495 0.12865081 0.09250455 0.018048907 0.103046186 -0.004269051 -0.0722437
0.020014726 -0.17312261 0.051063288 -0.08685081 -0.15072417 -0.047620356 0.041127227 -0.052253015
0.034818944 -0.16025463 0.14630932 0.0337504 -0.06610216 -0.14533706 -0.11239407 0.02328287
0.038064234 -0.20390132 -0.11576016 -0.11721828 0.1210279 -0.0072482172 0.011825657 0.085207835
0.019657597 0.124032505 -0.0021758433 -0.07299508 0.17348678 -0.010504122 -0.0744111 0.13179499
00000000: 997e 40bd d82b ecbd 10e1 10be 18ab a53d
00000010: 6eb5 113c 6c51 a0bd ee47 4cbd 7375 63bd
00000020: 56cb ffbd 05b0 b03c ab62 273e 864d 23be
00000030: 990f a73c 8d6c fd3d d654 15bc 3d56 863c
00000040: 119f a1bd ffb3 8d3d 644e 2a3e 206e 5c3d
00000050: 44af 833d 722f 083c 3e7b e93d 1b4e 033d
00000060: 38ef 5e3c 83c0 87bd eef5 283e 3df3 d7bd
00000070: ff77 193e e17d f8bd 2194 f3bd 6cb5 0dbd
00000080: e5b2 863c ccda 1b3e 552f 2ebe 3da8 d13d
00000090: 009f 68bb bc07 c8bb 7b5b dc3d 221e bfbd
000000a0: 19d8 f4bd 5aea 04bd 0c94 83bd ee36 13be
000000b0: 0d14 8cbd 5798 33be fa75 62bc 014e 743d
000000c0: 733e 453e 9dbf 89bd 391c aebd c909 da3d
000000d0: eef1 2b3e c1b0 2e3d a1c4 eb3d 54c4 523b
000000e0: bfac 18bd 83c1 c03d af76 853d e6d6 033e
000000f0: 6044 8c3c 34a8 48bd 71d8 3dbe 7502 6cbd
00000100: ea87 6f3c 981c d6bd c261 dabc 2a72 1b3e
00000110: 5b44 2a3d 77c9 cbbd 617b 0abe 970b 47be
00000120: 51ca ccbd 9f1e 85bc 3767 203d 5937 aa3d
00000130: ca1d 55be 0616 f4bd 2f50 08be 9eac a9bd
00000140: 97aa 21bc 24ba 09be 3f65 1c3e df51 d33d
00000150: 9122 0dbe c213 91bd ea60 b43c 6460 843d
00000160: 7d05 143e ad48 e9bb 0e54 28be 97a6 f23d
00000170: 7d4b 293d 1dd0 c43a aaa0 7abd 9941 92bd
00000180: fde3 163e 9efd 713d e95e 403e 2d75 32be
00000190: d473 adbd 3efc 17bd 15e7 a23c db2d 363e
000001a0: d025 c2bd 2218 fe3d 11be f8bd 11a6 35be
000001b0: d8c9 2a3c 5305 16be bda1 7ebd 5b25 173e
000001c0: 75c5 dabd b5b6 ebbd 029f 283c 8f5b 1dbe
000001d0: 556d ddbd d0c5 51bd 01da 85bd 3c3c 71bd
000001e0: 89ed 9f3d 56ba 353e 00bd ad3d e296 16be
000001f0: 3d1f ed3c 43f1 343e e376 21be 2b20 43be
00000200: edbe 08be 0bdd 3b3d ec46 cbbd abc7 e7bc
00000210: 2b60 fe3c 892a 993d c4a8 113e cbf1 6dbc
00000220: 03ed 753d 8599 493e 0b3b b23d 2eb6 2cbe
00000230: 674e b53d dbfe e03d 6014 5b3c 3e67 243e
00000240: c6cd 95bd 50a4 d03d b9f6 bb3b 3357 9dbd
00000250: 80b0 d7bb b8ae e5bd 2304 8b3c 7a31 a63d
00000260: 13a5 b53d 1d52 50be b328 65be 2b74 1cbe
00000270: 8485 fabd bcf4 6cbd 55db 40bc 6067 dcbc
00000280: ef4e f13a 21d5 b7bc 0abd 033e 0773 bd3d
00000290: 4ddb 933c e109 d33d 65e3 8bbb 81f4 93bd
000002a0: ecf5 a33c 0e47 31be bd27 513d d6de b1bd
000002b0: 7057 1abe 900d 43bd 0675 283d 4207 56bd
000002c0: 4f9e 0e3d ca19 24be 1cd2 153e dc3d 0a3d
000002d0: 9260 87bd 3dd3 14be dd2e e6bd b8bb be3c
000002e0: 3ee9 1b3d 82cb 50be aa13 edbd 2310 f0bd
000002f0: 7add f73d 7482 edbb 67c0 413c 7281 ae3d
00000300: f808 a13c c104 fe3d 9898 0ebb 727e 95bd
00000310: 85a6 313e 7b19 2cbc d964 98bd 44f5 063e

fc2.weight f4 [100, 204]
0.09666949 -0.081004605 0.04940424 0.09770368 -0.09154711 -0.017878965 0.09241624 -0.078166336
0.0073311324 0.055086624 0.09357391 0.08744871 0.054300625 0.11420516 0.031238865 0.043695755
-0.042027585 0.05856486 -0.014074686 0.12131669 -0.06954267 -0.015235034 0.016574066 -0.011061355
0.12083503 0.090225555 -0.01836965 0.103072174 0.07043033 -0.051569298 0.011492233 -0.09482961
0.02999417 -0.028883 0.017415809 0.07898396 -0.01745209 -0.09757018 -0.011639927 -0.11016496
0.0966299 0.0036425407 0.09428789 -0.08140467 0.068837345 0.043737125 -0.0696183 0.14813377
0.041286178 0.0856645 0.04546294 -0.044798996 -0.066591665 -0.051179036 0.1020345 -0.08846284
-0.012163693 0.02320191 -0.049660265 -0.0236058 0.0035565286 -0.021981813 -0.03566236 -0.114231296
-0.08734185 0.03611181 0.10793321 0.12228963 -0.06551194 -0.05322985 0.08131332 -0.053637326
0.074589975 0.024638882 0.091780856 -0.038362708 -0.031474184 0.11565133 0.11843077 -0.0045892037
0.10926287 0.089037366 0.053109933 0.0849185 0.059151407 0.03502324 0.14996575 -0.09804421
0.07194956 0.13321084 0.032095265 -0.041958295 0.022732636 0.069693424 -0.068846576 0.08517448
0.09506335 0.09977971 0.028600264 -0.048634768 -0.05693817 0.020911876 0.10225682 0.10375492
0.049859527 -0.012826968 0.0948795 -0.032032173 0.05037039 0.05821177 -0.012891547 -0.083767384
0.040445037 0.03977232 0.021906408 -0.022479868 0.0138700055 -0.06333993 0.07941362 0.058079336
0.058525674 0.0156108625 0.15134065 0.04746196 0.01213094 0.09615497 0.014264749 0.034352873
0.046851214 -0.04891342 -0.07433311 0.030414147 -0.032883696 0.024512898 0.071503356 0.07265451
-0.05631562 0.15091762 0.09717818 0.05152801 -0.053649966 -0.032618582 -0.0813182 0.04030023
0.032577883 0.01220735 -0.1151663 -0.065724015 0.0683172 -0.08353416 0.02704554 -0.028848229
-0.0067859013 0.039035972 0.06534219 0.03602233 -0.005168291 0.06944388 -0.08039169 0.047547255
-0.10754905 0.10574008 0.013961815 0.10218916 0.059671972 -0.023503004 -0.04696236 0.064483814
-0.1277363 -0.06054413 0.071308196 0.09565101 -0.07382052 0.018783169 -0.002802167 0.06544275
0.027265703 0.028047103 0.041853633 0.10511734 0.01722397 -0.064059585 -0.037331164 0.11890588
-0.02771202 -0.005980758 0.08411194 0.065466374 0.067707516 0.13479105 0.08750167 0.053653542
-0.06390125 0.059865974 0.022042641 0.02713769 0.104458354 -0.004201982 0.11984372 -0.14123937
0.08012351 -0.06769778 -0.021719377 -0.03272991 -0.14848758 -0.07861593 -0.03552405 -0.006001016
0.053511158 -0.0653567 -0.017038133 0.07883497 -0.061852764 0.0660776 -0.08814913 0.036484033
0.04759639 0.0916482 0.04423711 -0.06429788 0.063867964 -0.03200448 -0.04922274 -0.06008234
0.08983035 0.053094964 0.08532052 -0.17041153 0.01588533 -0.117123425 -0.06292763 0.11023755
-0.03178915 -0.03136957 -0.05718966 0.0077518285 -0.09315123 0.13518198 0.068270355 0.038466025
-0.0013061276 -0.022870762 0.010421661 -0.06943142 -0.06601651 0.12546256 0.019277401 0.07432311
-0.0015772767 0.08983469 0.077554636 -0.051681194 0.08891355 0.10170341 -0.042490944 -0.00019667044
00000000: a7fa c53d bee5 a5bd 1a5c 4a3d de18 c83d
00000010: 0d7d bbbd e876 92bc ba44 bd3d ac15 a0bd
00000020: ff39 f03b 83a2 613d aea3 bf3d 4f18 b33d
00000030: 556a 5e3d 65e4 e93d a6e8 ff3c 52fa 323d
00000040: 1e25 2cbd b5e1 6f3d 8399 66bc e374 f83d
00000050: 636c 8ebd 5d9c 79bc 56c6 873c af3a 35bc
00000060: 5b78 f73d 2dc8 b83d f37b 96bc 8117 d33d
00000070: c73d 903d 543a 53bd eb49 3c3c 0736 c2bd
00000080: 55b6 f53c 0b9c ecbc 99ab 8e3c 58c2 a13d
00000090: aff7 8ebc e0d2 c7bd 64b5 3ebc 2b9e e1bd
000000a0: e6e5 c53d b1b7 6e3b 021a c13d 7eb7 a6bd
000000b0: 98fa 8c3d b325 333d 0a94 8ebd 61b0 173e
000000c0: b21b 293d df70 af3d 5937 3a3d 277f 37bd
000000d0: 3661 88bd 1ca1 51bd 77f7 d03d 012c b5bd
000000e0: 3a4a 47bc ef11 be3c 9068 4bbd f360 c1bc
000000f0: a614 693b 3413 b4bc b212 12bd 19f2 e9bd
00000100: 49e0 b2bd fae9 133d 160c dd3d fc72 fa3d
00000110: 202b 86bd 8b07 5abd 9987 a63d d0b2 5bbd
00000120: a1c2 983d 7bd7 c93c 9af7 bb3d 3722 1dbd
00000130: 13eb 00bd 9bda ec3d d58b f23d 0861 96bb
00000140: 36c5 df3d 3959 b63d cd89 593d c0e9 ad3d
00000150: bf48 723d 8774 0f3d 9f90 193e 67cb c8bd
00000160: 4a5a 933d 6c68 083e 5376 033d 76dc 2bbd
00000170: cb39 ba3c 6dbb 8e3d 6fff 8cbd f56f ae3d
00000180: 93b0 c23d 4e59 cc3d 1a4b ea3c 4035 47bd
00000190: 0038 69bd 624f ab3c 066c d13d 767d d43d
000001a0: 8139 4c3d 3428 52bc 2f50 c23d 2b34 03bd
000001b0: 2f51 4e3d 776f 6e3d 1137 53bc 3c8e abbd
000001c0: b2a9 253d 4de8 223d 1175 b33c b327 b8bc
000001d0: 053f 633c 5db8 81bd 9ca3 a23d 99e4 6d3d
000001e0: 9eb8 6f3d b4c4 7f3c 0bf9 1a3e 7967 423d
000001f0: dac0 463c e6ec c43d b2b6 693c 99b5 0c3d
00000200: 0fe7 3f3d 7059 48bd f53b 98bd 1727 f93c
00000210: 0eb1 06bd 46cf c83c 5a70 923d e3cb 943d
00000220: 35ab 66bd 268a 1a3e 5b05 c73d 090f 533d
00000230: 11c0 5bbd 109b 05bd 288a a6bd db11 253d
00000240: 6370 053d 5601 483c 4fdc ebbd 509a 86bd
00000250: e3e9 8b3d f513 abbd 9c8e dd3c 1f53 ecbc
00000260: 445c debb 2fe4 1f3d 20d2 853d 278c 133d
00000270: c45a a9bb 9838 8e3d 66a4 a4bd e9c0 423d
00000280: ad42 dcbd 418e d83d 19c0 643c 8d48 d13d
00000290: 996a 743d 5f89 c0bc 9b5b 40bd 1710 843d
000002a0: 4ecd 02be 1ffd 77bd 080a 923d ade4 c33d
000002b0: 362f 97bd 29df 993c 90a4 37bb d906 863d
000002c0: 535c df3c 0ac3 e53c b76e 2b3d c347 d73d
000002d0: 4819 8d3c ac31 83bd 90e8 18bd ed84 f33d
000002e0: 5104 e3bc 3cfa c3bb e142 ac3d 3c13 863d
000002f0: 3daa 8a3d aa06 0a3e 1334 b33d d1c3 5b3d
00000300: a9de 82bd 0636 753d c592 b43c dc4f de3c
00000310: 43ee d53d c8b0 89bb a070 f53d 0ea1 10be
00000320: cb17 a43d 22a5 8abd d6ec b1bc cc0f 06bd
00000330: 210d 18be 6401 a1bd ab81 11bd 2ca4 c4bb
00000340: 842e 5b3d bcd9 85bd 8e93 8bbc 3b74 a13d
00000350: 5359 7dbd b153 873d 8887 b4bd 4870 153d
00000360: 6ff4 423d 0db2 bb3d f931 353d 9bae 83bd
00000370: 35cd 823d 2117 03bd c99d 49bd e618 76bd
00000380: f9f8 b73d 1b7a 593d 86bc ae3d 5c80 2ebe
00000390: f421 823c 68de efbd 34e0 80bd 3ac4 e13d
000003a0: 5735 02bd 617d 00bd b43f 6abd 0d03 fe3b
000003b0: 12c6 bebd 256d 0a3e 54d1 8b3d 8d8e 1d3d
000003c0: 5f32 abba 775b bbbc 9dbf 2a3c 0f32 8ebd
000003d0: aa33 87bd 4279 003e a4eb 9d3c b736 983d
000003e0: a0bc ceba 40fb b73d f7d4 9e3d a9af 53bd
000003f0: 4f18 b63d e149 d03d fc0a 2ebd 5239 4eb9

fc2.bias f4 [100]
0.064898446 0.08579273 0.094689086 0.0036548527 -0.03009012 0.02302624 0.08258718 -0.012166727
-0.031835858 -0.061154786 -0.05672614 -0.0031000003 -0.080637254 -0.036100876 0.055348244 0.014153095
-0.044283878 -0.037522692 -0.025845716 0.124474786 0.07733497 -0.043899972 0.09965406 0.025868436
-0.007121599 -0.036420267 0.09910754 -0.104106784 -0.0042046006 -0.061396778 0.13112296 -0.030495808
-0.033307534 -0.01856527 -0.022684809 -0.011280334 0.0703134 0.00045985953 -0.023803318 -0.035781175
-0.033653885 0.10239107 -0.0030255883 -0.03817781 -0.04486114 0.11499603 0.09380304 -0.008548672
0.005732021 0.018351724 -0.021221941 -0.08782135 0.077774756 0.008178031 -0.04083817 0.021026475
-0.026047964 -0.10203851 -0.034779467 0.0738372 0.031357396 -0.010355394 -0.003272117 0.040115476
0.11476268 -0.052741785 -0.077776305 -0.0700599 -0.007742497 0.0329987 -0.034678202 -0.06153391
0.027006699 -0.026353948 0.00088232936 0.053072184 -0.034476448 0.015082858 0.10156213 -0.006174516
-0.020206055 0.0085286265 0.040188827 -0.05484924 -0.0025146215 -0.025403498 0.050066214 0.09253247
0.0022239783 0.060123336 0.04182999 -0.062012393 0.054855235 0.034417477 -0.042789727 0.023388615
-0.023852589 0.054408737 -0.092851564 0.052379824
00000000: 7ae9 843d 19b4 af3d 5aec c13d 4186 6f3b
00000010: 8e7f f6bc 86a1 bc3c 7823 a93d f456 47bc
00000020: 5166 02bd 717d 7abd ab59 68bd 6029 4bbb
00000030: 2525 a5bd 83de 13bd d7b4 623d 62e2 673c
00000040: 0363 35bd 65b1 19bd 65ba d3bc a3ec fe3d
00000050: cc61 9e3d 75d0 33bd 6e17 cc3d 0bea d33c
00000060: 4d5c e9bb 6b2d 15bd e5f8 ca3d f035 d5bd
00000070: bfc6 89bb 307b 7bbd 1945 063e 58d2 f9bc
00000080: 7b6d 08bd 3116 98bc 7ed5 b9bc 26d1 38bc
00000090: 7900 903d 4d19 f139 2dff c2bc 488f 12bd
000000a0: a8d8 09bd 69b2 d13d f348 46bb 5660 1cbd
000000b0: 51c0 37bd 0a83 eb3d cf1b c03d bb0f 0cbc
000000c0: add3 bb3b 5b56 963c a3d9 adbc aedb b3bd
000000d0: 5f48 9f3d 26fd 053c ed45 27bd b73f ac3c
000000e0: 8a62 d5bc 91f9 d0bd ea74 0ebd f537 973d
000000f0: 9d70 003d aca9 29bc 0471 56bb 2050 243d
00000100: b208 eb3d c507 58bd 2f49 9fbd 917b 8fbd
00000110: c6b4 fdbb a529 073d bb0a 0ebd fb0a 7cbd
00000120: 273d dd3c 3ce4 d7bc 1f4c 673a 3862 593d
00000130: 2d37 0dbd 171e 773c ceff cf3d 9853 cabb
00000140: 2b87 a5bc a7bb 0b3c 0a9d 243d 99a9 60bd
00000150: 59cc 24bb ff1a d0bc 3b12 4d3d aa81 bd3d
00000160: 2ac0 113b e343 763d ec55 2b3d b500 7ebd
00000170: e2af 603d 57f9 0c3d 4844 2fbd 7b99 bf3c
00000180: 8166 c3bc b2db 5e3d f628 bebd 3a8c 563d

fc3.weight f4 [1, 100]
0.046094663 0.08808155 0.065160066 -0.06344372 -0.074347824 -0.071756646 0.07355476 0.077911705
-0.12383936 -0.103996545 -0.15956579 0.20458083 -0.10041333 -0.0940402 -0.14915113 -0.1192432
-0.18024874 -0.100220285 -0.103445746 0.13795543 0.09425166 -0.12598887 0.077568375 -0.103670955
-0.15279086 0.2385421 0.060502507 -0.055911794 0.10003206 -0.27430114 0.054762613 -0.16118753
0.20934358 0.065888405 -0.08252671 -0.13775785 0.08706871 -0.15022449 0.13210823 -0.12353744
0.20903593 0.05853522 0.13017742 -0.085399315 -0.05462461 0.21019831 0.17490005 0.071283676
0.05125816 -0.20683958 -0.086738005 -0.05059026 0.2593867 -0.108259626 0.21474734 -0.14502051
-0.052732825 -0.11603712 -0.056830086 0.052935418 0.06571101 -0.0718151 -0.12754822 0.09814699
0.09955464 -0.06352274 -0.18726154 -0.11319067 -0.09741561 -0.13493812 -0.15120126 -0.18272418
0.10002848 0.1584727 -0.09154235 0.34505597 0.103598155 -0.076710366 0.14125453 -0.090995274
-0.06516531 -0.21803264 -0.058454525 -0.097140886 -0.19737047 -0.10084424 0.2729994 0.103249356
-0.096205294 0.059233397 -0.19818279 -0.21269841 -0.094153546 -0.117389575 0.22141162 0.105166614
-0.14365415 0.08359651 -0.2253213 0.23360924
00000000: c2cd 3c3d 1a64 b43d a472 853d c8ee 81bd
00000010: ac43 98bd 26f5 92bd e1a3 963d 2c90 9f3d
00000020: 7e9f fdbd 24fc d4bd 3765 23be a37d 513e
00000030: 81a5 cdbd 2698 c0bd 13bb 18be c735 f4bd
00000040: 2093 38be 4b40 cdbd 5ddb d3bd 3044 0d3e
00000050: 0407 c13d 3a03 01be 2bdc 9e3d 7051 d4bd
00000060: 3575 1cbe 6144 743e 7ad1 773d c403 65bd
00000070: 9cdd cc3d 3371 8cbe c34e 603d 580e 25be
00000080: 2a5e 563e 80f0 863d c403 a9bd 6510 0dbe
00000090: 1451 b23d 73d4 19be 6147 073e 3301 fdbd
000000a0: 840d 563e a0c2 6f3d 3b4d 053e d6e5 aebd
000000b0: 0ebe 5fbd 3a3e 573e 0019 333e 2dfd 913d
000000c0: 14f4 513d c1cd 53be b2a3 b1bd bc37 4fbd
000000d0: 55ce 843e 39b7 ddbd bae6 5b3e 4280 14be
000000e0: 60fe 57bd dfa4 edbd aac6 68bd cfd2 583d
000000f0: 7e93 863d cc13 93bd 009c 02be 4a01 c93d
00000100: 4ee3 cb3d 3618 82bd 7dc1 3fbe 83d0 e7bd
00000110: d681 c7bd 382d 0abe 81d4 1abe 0c1c 3bbe
00000120: bbdb cc3d ab46 223e 8e7a bbbd 2dab b03e
00000130: 452b d43d 531a 9dbd 07a5 103e bb5b babd
00000140: 6475 85bd f343 5fbe 036e 6fbd cdf1 c6bd
00000150: 7c1b 4abe 6d87 cebd 94c6 8b3e 6674 d33d
00000160: 4807 c5bd b89e 723d 6ef0 4abe 9dcd 59be
00000170: 93d3 c0bd f269 f0bd bab9 623e 9861 d73d
00000180: 131a 13be a634 ab3d a0ba 66be 4337 6f3e
